smash-bot/saved-models/best-smash-bot.pth (torch, 2844 bytes, 5 tensors)

fc1.weight f4 [8, 4]
000000 ee d2 d8 3e 08 8d a2 3d 80 68 82 3c e2 09 b7 be
       0.42348427 0.07937056 0.01591897 -0.35749727
000010 ca 75 eb 3e 80 2e 17 be 10 31 f5 3d 6e 97 97 3e
       0.45988303 -0.14763832 0.119722486 0.2960772
000020 f4 e3 f7 3e 30 8d ce 3d e0 52 d1 bc 42 d1 97 be
       0.48416102 0.10085523 -0.025552213 -0.2965184
000030 8a 69 85 3e 00 2d f8 3d 9a 4f fb 3e 9c 6f 2b 3e
       0.26057082 0.12117958 0.4908417 0.16741794
000040 f0 91 33 3d 34 68 d1 be 6c c3 a2 be d8 72 af be
       0.04384035 -0.40899813 -0.3178972 -0.34267306
000050 84 41 fe be c8 5e 22 3e 48 1b db 3d 7a 80 ca be
       -0.4965936 0.15856469 0.10698563 -0.39551145
000060 80 cd 2d be c2 14 f5 3e e4 fa ea be 30 4f c6 be
       -0.16972923 0.478674 -0.4589454 -0.3873229
000070 84 63 7e 3e 08 1c 93 bd 00 78 ae b9 10 c7 f2 3e
       0.2484265 -0.07183081 -0.00033277273 0.47417498

fc1.bias f4 [8]
000000 9c 1a bb be 50 a4 05 3d 98 7f fe be 2c 24 66 be
       -0.3654374 0.032627404 -0.4970672 -0.22474736
000010 30 72 2e 3e e0 c2 65 be 9c ac a7 3e e0 72 6b bd
       0.17035747 -0.2243762 0.32748878 -0.0574826

fc2.weight f4 [4, 8]
000000 a3 a7 9e 3e 60 58 57 3d 7d 19 93 3e 74 46 af bd
       0.30987272 0.052574515 0.28730384 -0.0855836
000010 df 01 9b 3e d2 0e 6f be 5a 27 7e 3e 60 06 0e bd
       0.30274865 -0.23345497 0.24819699 -0.03467405
000020 80 69 3d 3c 5e f0 8e be 28 bb 4c bd 38 5c eb 3d
       0.011560798 -0.2791776 -0.049983174 0.11492199
000030 34 13 b6 bd f4 a4 da 3d b3 c4 71 3e d6 cd 98 be
       -0.088903815 0.106759936 0.23610191 -0.2984454
000040 70 c2 44 3d c2 ec 5c 3e 10 e3 81 be c8 3a 36 3d
       0.048036993 0.21574691 -0.25368547 0.044489652
000050 98 28 72 bd 12 89 9e be c4 d2 a9 3d 70 cd 00 bd
       -0.059120744 -0.3096395 0.082921535 -0.03144592
000060 0d 88 9a 3e e8 95 94 3d 12 d3 60 3e 40 21 64 be
       0.30181924 0.07255155 0.21955517 -0.22278309
000070 28 cd 33 bd b5 4a 89 3e 12 1a 7e 3e 82 3c 1e 3e
       -0.043896824 0.2681481 0.24814633 0.1545277

fc2.bias f4 [4]
000000 2e 28 2f be 88 fd a0 be 8e da 0d 3e a6 5e 7e 3e
       -0.17105171 -0.3144343 0.13852903 0.24840793

output.weight f4 [1, 4]
000000 34 ef fc be 1e 27 d8 be 60 b5 d6 bd d4 d8 29 be
       -0.49401248 -0.42217344 -0.10483813 -0.1658662
