smash-bot/saved-models/smash-bot.pth (torch, 2844 bytes, 5 tensors)

fc1.weight f4 [8, 4]
-0.04797274 -0.28932154 0.20131493 0.26430762 0.33955973 0.39701247 -0.26538044 -0.17621684
-0.010573983 -0.3265646 0.14316678 0.46594185 0.026600182 -0.057530165 0.034043133 0.38979822
0.3410254 0.4414481 -0.04351145 -0.38873494 -0.4348601 -0.23467225 -0.24592924 0.17020965
-0.38289404 0.33347476 0.059336662 0.20576465 -0.23481888 -0.28601462 0.20468855 -0.28287494
00000000: 107f 44bd f421 94be 8025 4e3e 5453 873e
00000010: c6da ad3e 3845 cb3e f2df 87be 3072 34be
00000020: 803e 2dbc 7a33 a7be 509a 123e ee8f ee3e
00000030: a0e8 d93c c0a4 6bbd d070 0b3d a293 c73e
00000040: e29a ae3e 7c05 e23e 1039 32bd 4408 c7be
00000050: fca5 debe ec4d 70be e0d4 7bbe 704b 2e3e
00000060: b00a c4be 34bd aa3e 000b 733d f8b3 523e
00000070: 5c74 70be 8270 92be e099 513e fcd4 90be

fc1.bias f4 [8]
0.19975442 -0.30788833 0.36818218 -0.2908553 0.34540737 0.4408263 -0.21015537 -0.26759738
00000000: 6c8c 4c3e 8aa3 9dbe 6082 bc3e fcea 94be
00000010: 3cd9 b03e fcb3 e13e f832 57be 8602 89be

fc2.weight f4 [4, 8]
0.22062102 -0.23124993 0.28736016 0.29427072 -0.15983361 -0.025630355 -0.1074764 0.3005496
-0.22354157 -0.28933132 0.03915298 -0.3080173 -0.65800947 -0.2394912 0.30992678 -0.039355874
0.18674007 0.08494604 0.16391942 -0.2368246 0.003283739 -0.08857486 0.050702482 -0.0964362
0.059612244 -0.25889003 -0.13490337 0.02345118 0.31054178 0.16959932 -0.3189686 -0.22264494
00000000: 7aea 613e c8cc 6cbe df20 933e a7aa 963e
00000010: 6cab 23be c0f6 d1bc 961c dcbd a3e1 993e
00000020: 15e8 64be 3c23 94be e05e 203d 72b4 9dbe
00000030: 4f73 28bf 2e3d 75be b9ae 9e3e a033 21bd
00000040: ca38 3f3e 30f8 ad3d 7eda 273e 2682 72be
00000050: 0034 573b bc66 b5bd 68ad 4f3d 5880 c5bd
00000060: f82b 743d 3c8d 84be 1c24 0abe b01c c03c
00000070: 55ff 9e3e 72ab 2d3e da4f a3be 09fd 63be

fc2.bias f4 [4]
0.29056212 0.30966577 -0.067561954 0.30956116
00000000: 8fc4 943e 838c 9e3e ec5d 8abd cd7e 9e3e

output.weight f4 [1, 4]
0.09761298 -0.010193527 -0.21389157 0.07868737
00000000: 50e9 c73d c002 27bc 6406 5bbe d826 a13d
