smash-bot/saved-models/smash-bot.pth (torch, 2844 bytes, 5 tensors)

fc1.weight f4 [8, 4]
000000 f4 cd ae 3e 04 4b 89 3e 40 6a ea 3c 66 4d b6 be
       0.34141505 0.26815045 0.028615117 -0.35605925
000010 c2 d0 a5 3e 98 12 9a be ba 0e f7 be 40 57 83 be
       0.32385832 -0.3009231 -0.48253423 -0.25652504
000020 a0 56 99 3d 00 06 6b bb 2a 00 eb be 44 e6 eb be
       0.074872255 -0.003586173 -0.45898563 -0.46074116
000030 e4 50 f4 3e 1c 6e f6 3e 70 67 d0 3d 9e 4b e2 3e
       0.47717965 0.48130882 0.10175979 0.44198316
000040 96 31 a1 3e d8 4b ab be 78 28 fd 3e a0 2a cd 3d
       0.31483144 -0.33456302 0.49444938 0.10017896
000050 d0 fa 50 3e 34 8f 3f 3e 4e a8 af 3e 3c 4d 85 3e
       0.20408177 0.18706971 0.34308094 0.26035488
000060 a8 74 bb 3e 74 c5 6b 3e 60 79 03 be f0 81 08 3e
       0.3661244 0.23024541 -0.1283927 0.13330817
000070 40 83 11 bc b0 c9 57 3e 5a 24 c3 3e c2 8f a7 3e
       -0.00888139 0.21073031 0.38113672 0.32726866

fc1.bias f4 [8]
000000 14 8d 88 3e a0 94 12 be e8 f2 57 3e 40 b7 e7 3c
       0.26670134 -0.14314508 0.21088755 0.028285623
000010 66 6a 84 3e 88 f5 a5 be 76 24 aa 3e 38 6c ab be
       0.25862426 -0.32413888 0.33230942 -0.33481002

fc2.weight f4 [4, 8]
000000 46 7f 28 3e e8 d7 0a 3d e5 66 48 be 9f 95 4e be
       0.16454801 0.03389731 -0.19570501 -0.20174263
000010 b8 12 1d bd 2a 15 29 3e 29 74 01 be 01 64 a5 3e
       -0.03834793 0.1651198 -0.12641968 0.3230286
000020 ae 1b 87 be c0 89 54 bc 00 b1 d7 3a 90 0d 27 bd
       -0.26388305 -0.012972295 0.0016455948 -0.04078442
000030 c8 15 0f 3d c8 90 a3 be f4 25 70 be f0 d3 f8 bd
       0.03493288 -0.31946397 -0.23451978 -0.12149799
000040 98 7b 41 bd 30 9c f8 3c bb 74 82 3e 25 1c 94 3e
       -0.04723701 0.030347914 0.25479683 0.28927723
000050 6f 02 15 be ab 50 91 3e d4 72 5f be 7b b1 98 3e
       -0.1455171 0.28381857 -0.21821147 0.29822907
000060 da 3b 62 3e bf de 8c 3e bf 95 82 3e 9a 6d 38 3e
       0.22093144 0.27513692 0.25504872 0.1801056
000070 94 2e 98 be c0 55 c3 3d a6 02 30 3e 78 12 01 3d
       -0.29723036 0.0953784 0.1718851 0.031511754

fc2.bias f4 [4]
000000 a0 53 39 3d c4 5a f6 bd 84 7d 0c 3e 6c 46 8e bd
       0.045245767 -0.12029031 0.13719755 -0.06947026

output.weight f4 [1, 4]
000000 c0 68 f5 bc e8 51 16 be 86 11 85 be c8 1b 27 be
       -0.029957175 -0.14679682 -0.25989932 -0.16319191
