smash-bot/saved-models/2024-07-18-00-57-01/1.pth (torch, 2508 bytes, 5 tensors)

fc1.weight f4 [8, 4]
000000 00 64 c9 3d b0 28 6e be 48 0a 64 be ac 1a 56 be
       0.098335266 -0.23257709 -0.22269547 -0.20908612
000010 88 e6 07 3e 98 59 80 3d 9c e4 b7 3e e6 63 eb be
       0.13271534 0.06267089 0.35916603 -0.45974654
000020 a4 e2 d2 be 52 eb a3 3e 16 35 95 3e dc 91 40 be
       -0.41188538 0.32015473 0.29142064 -0.18805641
000030 a0 9e 8a 3c a0 d4 e2 3d a0 01 5a bd 1a 46 a4 be
       0.016921341 0.11075711 -0.053224206 -0.32084733
000040 a0 9c 27 be ec b6 54 be 4c df 76 be 00 cd ce bb
       -0.16368341 -0.20772904 -0.24108618 -0.006311059
000050 c0 23 e3 3d 58 fe 88 3e 02 38 8e be ec 30 21 3e
       0.11090803 0.2675655 -0.27777106 0.15741318
000060 40 23 ae bd b4 c7 a9 be 72 c7 9d be b2 52 ce 3e
       -0.08502817 -0.33160174 -0.30816227 0.40297467
000070 20 ee 4b bd 34 bb 44 3e 10 49 40 3d 00 4f ec 3b
       -0.04978764 0.19212037 0.046944678 0.007211566

fc1.bias f4 [8]
000000 e0 04 c7 3c c2 06 d9 be 66 ea a7 be 58 0a 9d 3d
       0.024294317 -0.42387968 -0.3279602 0.076679885
000010 60 5e 5e be 0e f8 87 3e f0 f0 a2 3d 80 a6 33 3d
       -0.21715689 0.26556438 0.079561114 0.04385996

fc2.weight f4 [4, 8]
000000 10 5e 1b 3d 89 36 98 3e 2a 1e 2c be f0 2f 5c 3d
       0.037931502 0.29729107 -0.16808382 0.053756654
000010 61 c8 a5 3e f2 17 65 be f2 cb 00 3e f8 d3 8b be
       0.3237944 -0.22372416 0.12577799 -0.27310157
000020 18 06 4f 3d 1f d6 33 be a0 87 d7 3d 3c 31 be 3d
       0.05054292 -0.1756215 0.10523915 0.092867345
000030 ef 84 8e 3e c0 fb 23 bc 16 38 70 3e 48 91 e0 bd
       0.27835795 -0.010008752 0.23458895 -0.1096521
000040 3a 4d 6b 3e a0 da 4f 3d b1 41 3e be da cb 7d 3e
       0.22978678 0.050745606 -0.18579747 0.24784794
000050 a0 7f d2 3c f0 79 27 be 30 28 a1 be 64 f7 0a 3e
       0.025695622 -0.16355109 -0.31475973 0.13570935
000060 00 d3 88 ba 70 4c d7 bc 4d 97 45 be 40 b8 82 be
       -0.001043886 -0.026281565 -0.19295998 -0.25531197
000070 f6 f5 89 be 30 6e 45 bd 00 cf d3 3c 80 ee 2c bd
       -0.26945466 -0.048200786 0.025855541 -0.04221964

fc2.bias f4 [4]
000000 d3 ee 20 be 0c 3c ff bd 08 2b 54 bd b4 95 a2 be
       -0.15716104 -0.12462625 -0.05179885 -0.3175484

output.weight f4 [1, 4]
000000 c0 3e 40 bc 90 c9 8a be 3c eb 11 be a8 32 9e be
       -0.011733711 -0.27106905 -0.14249891 -0.30898023
