smash-bot/saved-models/2024-07-18-00-57-01/1075.pth (torch, 2666 bytes, 5 tensors)

fc1.weight f4 [8, 4]
00000000: 1876 b33f 0a42 f23e 4c10 a9be 927f debe
00000010: b018 883d 50d8 413e 96ac f83e dcc4 91be
00000020: 1e6a e5be a6ed e1be e45c f5be 90f4 063d
00000030: cc4e 473e 18d2 a13d c043 f0bf 0815 fbbd
00000040: 8697 35bf a491 d33f 38d9 97bd 6874 5cbe
00000050: fc6d d2be 20b3 bfbd 686b 7fbe 02c0 603f
00000060: 6028 9ebd 002d 9bbe cee2 8a3e 3a71 953e
00000070: 0859 92be 52d5 e33e 3638 e6be 9084 fdbe
1.4020414 0.4731601 -0.33020246 -0.43456703 0.06645334 0.18930173 0.48569173 -0.28470504
-0.44807523 -0.44126624 -0.47922432 0.032948077 0.19463652 0.079014 -1.8770676 -0.12259871
-0.7093433 1.6528821 -0.07414478 -0.2152878 -0.41099536 -0.09360337 -0.24943316 0.8779298
-0.07722545 -0.3030777 0.27126163 0.29187948 -0.2858355 0.44498688 -0.4496476 -0.495152

fc1.bias f4 [8]
00000000: 204a bc3c 5c84 4ebe 1084 acbd f44b 93be
00000010: ccac 81be d241 823e aca6 1bbe 9497 373e
0.022984564 -0.20167679 -0.084236264 -0.28768885 -0.25327146 0.25440842 -0.15200299 0.17928916

fc2.weight f4 [4, 8]
00000000: b52e 943e cf80 993e 28dc 713d eb51 df3e
00000010: d456 bb3d 8036 74be 84dc 81bd ee37 1bbe
00000020: c0cd b63b dccd 41be 28e4 6d3f fd22 1cbe
00000030: 589c 89bd fc04 883d 21dd 8d3e dc81 4dbe
00000040: 526c f4bd 467b 3a3f ccd1 30c0 fe58 cfbf
00000050: c5da a63e 14b4 86be ce8b af3f 42ff 723e
00000060: daf9 3d3e 3e26 6fbe 591e 9d3e cc75 98bd
00000070: ca9d 5f3e 28f6 fa3d f058 93be b870 81bf
0.28941885 0.29981086 0.059047848 0.43617186 0.091474205 -0.23848915 -0.06340888 -0.15158054
0.0055787265 -0.18926185 0.92926264 -0.15247722 -0.06719273 0.06641576 0.2770777 -0.20069069
-0.11934723 0.7284435 -2.762805 -1.6199033 0.32588783 -0.26309264 1.371454 0.23730186
0.18552342 -0.23354432 0.30687216 -0.07444343 0.21837536 0.12253982 -0.2877879 -1.0112524

fc2.bias f4 [4]
00000000: 10de a73c 9465 e43d 99bb b3be f890 97be
0.02049163 0.11152187 -0.35104063 -0.2960279

output.weight f4 [1, 4]
00000000: 583e b2bd a0c9 073e 00f8 1e3b 901b f8bd
-0.087032974 0.13260508 0.0024256706 -0.12114632
