smash-bot/saved-models/2024-07-18-00-57-01/11.pth (torch, 2582 bytes, 5 tensors)

fc1.weight f4 [8, 4]
-0.28853774 0.46381915 -0.018886745 -0.34624702 0.13155252 0.09324151 -0.24750698 0.102974
0.2730388 -0.3192116 0.36854678 -0.17110854 0.40246516 -0.08977455 0.3957306 -0.049385965
-0.09519434 -0.088201046 -0.028213203 -0.0928908 0.031703472 0.48795348 0.42553717 0.37089866
-0.35201913 0.16677547 -0.04672563 -0.007666111 -0.4430341 -0.46379858 -0.44970638 0.1967867
00000000: 38bb 93be b479 ed3e 60b8 9abc 4a47 b1be
00000010: b4b5 063e 68f5 be3d 7872 7dbe 08e4 d23d
00000020: becb 8b3e b46f a3be 2ab2 bc3e 1437 2fbe
00000030: ea0f ce3e b8db b7bd 349d ca3e f048 4abd
00000040: 40f5 c2bd c0a2 b4bd 601f e7bc 883d bebd
00000050: 80db 013d 0ad5 f93e 02e0 d93e 6ee6 bd3e
00000060: da3b b4be 30c7 2a3e 6063 3fbd 0034 fbbb
00000070: 5ed5 e2be 0277 edbe ea3f e6be 7482 493e

fc1.bias f4 [8]
-0.17210865 -0.49032658 0.2653038 -0.3287024 -0.3697924 0.40567 0.029295385 -0.2691959
00000000: 403d 30be 160c fbbe e6d5 873e ae4b a8be
00000010: 6e55 bdbe fab3 cf3e e0fc ef3c 0cd4 89be

fc2.weight f4 [4, 8]
-0.30405492 0.055199564 0.12714869 -0.18010604 0.3133405 0.3377802 0.08735287 0.2021971
0.12308788 0.2742881 -0.055918157 0.29825887 0.047890157 -0.17748325 0.019934356 -0.30916813
0.06662282 0.062407017 -0.0067897737 0.18509093 -0.29433876 -0.29489514 0.17627862 -0.053317368
0.29852465 -0.060563922 -0.06816873 -0.20843892 -0.052150667 0.15266916 0.32661298 0.19643101
00000000: 16ad 9bbe f018 623d 4433 023e b86d 38be
00000010: 2b6e a03e 87f1 ac3e 10e6 b23d c20c 4f3e
00000020: 8015 fc3d 7d6f 8c3e 700a 65bd 63b5 983e
00000030: 7828 443d 2bbe 35be 604d a33c 494b 9ebe
00000040: 8c71 883d 809e 7f3d c07c debb 7a88 3d3e
00000050: 92b3 96be 7ffc 96be 6282 343e 5063 5abd
00000060: 39d8 983e e011 78bd 0c9c 8bbd 0371 55be
00000070: f09b 55bd 4e55 1c3e d139 a73e 3625 493e

fc2.bias f4 [4]
-0.1750359 0.26996872 0.22780874 0.28798363
00000000: 9c3c 33be 5739 8a3e b246 693e 9772 933e

output.weight f4 [1, 4]
0.4897287 0.27206874 -0.2739541 -0.2851594
00000000: b8bd fa3e 984c 8b3e b643 8cbe 6a00 92be
