smash-bot/saved-models/2024-07-18-00-57-01/116.pth (torch, 2656 bytes, 5 tensors)

fc1.weight f4 [8, 4]
000000 be 28 b4 3e 0a 42 f2 3e 10 65 5c 3d 92 7f de be
       0.35187334 0.4731601 0.05380732 -0.43456703
000010 b0 18 88 3d 0c 62 ca be 96 ac f8 3e dc c4 91 be
       0.06645334 -0.3952793 0.48569173 -0.28470504
000020 1e 6a e5 be a6 ed e1 be e4 5c f5 be 90 f4 06 3d
       -0.44807523 -0.44126624 -0.47922432 0.032948077
000030 cc 4e 47 3e 18 d2 a1 3d f4 5e 02 be 08 15 fb bd
       0.19463652 0.079014 -0.12731534 -0.12259871
000040 a0 c1 15 3e a8 32 62 3e 38 d9 97 bd 68 74 5c be
       0.14624643 0.22089636 -0.07414478 -0.2152878
000050 fc 6d d2 be 20 b3 bf bd 68 6b 7f be 46 29 dc 3e
       -0.41099536 -0.09360337 -0.24943316 0.4300024
000060 60 28 9e bd 00 2d 9b be ce e2 8a 3e 3a 71 95 3e
       -0.07722545 -0.3030777 0.27126163 0.29187948
000070 08 59 92 be 52 d5 e3 3e 36 38 e6 be 90 84 fd be
       -0.2858355 0.44498688 -0.4496476 -0.495152

fc1.bias f4 [8]
000000 20 4a bc 3c 5c 84 4e be 10 84 ac bd f4 4b 93 be
       0.022984564 -0.20167679 -0.084236264 -0.28768885
000010 cc ac 81 be d2 41 82 3e ac a6 1b be 94 97 37 3e
       -0.25327146 0.25440842 -0.15200299 0.17928916

fc2.weight f4 [4, 8]
000000 b5 2e 94 3e cf 80 99 3e 28 dc 71 3d dc 18 fd bd
       0.28941885 0.29981086 0.059047848 -0.12358257
000010 d4 56 bb 3d 80 36 74 be 84 dc 81 bd ee 37 1b be
       0.091474205 -0.23848915 -0.06340888 -0.15158054
000020 c0 cd b6 3b dc cd 41 be d5 e8 82 3e fd 22 1c be
       0.0055787265 -0.18926185 0.25568262 -0.15247722
000030 58 9c 89 bd fc 04 88 3d 21 dd 8d 3e dc 81 4d be
       -0.06719273 0.06641576 0.2770777 -0.20069069
000040 52 6c f4 bd e9 f2 16 be 71 5b 9e be e6 da a6 be
       -0.11934723 -0.147411 -0.3092914 -0.3258888
000050 c5 da a6 3e 14 b4 86 be 00 c9 8d bc 42 ff 72 3e
       0.32588783 -0.26309264 -0.017307758 0.23730186
000060 da f9 3d 3e 3e 26 6f be 59 1e 9d 3e cc 75 98 bd
       0.18552342 -0.23354432 0.30687216 -0.07444343
000070 ca 9d 5f 3e 28 f6 fa 3d f0 58 93 be 7c b0 0e 3e
       0.21837536 0.12253982 -0.2877879 0.13934511

fc2.bias f4 [4]
000000 10 de a7 3c 94 65 e4 3d 99 bb b3 be f8 90 97 be
       0.02049163 0.11152187 -0.35104063 -0.2960279

output.weight f4 [1, 4]
000000 58 3e b2 bd a0 c9 07 3e 00 f8 1e 3b 90 1b f8 bd
       -0.087032974 0.13260508 0.0024256706 -0.12114632
