smash-bot/saved-models/2024-07-18-00-57-01/12.pth (torch, 2582 bytes, 5 tensors)

fc1.weight f4 [8, 4]
00000000: 8ebe e73e 8017 473c 7e0e 963e ca99 d03e
00000010: 4c52 9abe 3667 d2be eaed 97be bc7a e33e
00000020: d8f6 57be d4c1 93be 64bf 9cbe 58f7 eabd
00000030: 5001 d3bd b287 bfbe c8df da3e 3485 463e
00000040: 98db 833e c07f a53d 1447 f23e e444 19be
00000050: 3812 25be 20c2 ecbc dce2 a8be 343d 93be
00000060: e090 b13e 4e64 bb3e 6a91 d73e 18fb 663e
00000070: 9e65 d9be a6ed ea3e d028 c7bd 90af 083d
0.4526257 0.012151599 0.29307932 0.40742332 -0.30140913 -0.4109437 -0.29673702 0.44429576
-0.21090257 -0.28858817 -0.3061477 -0.11472958 -0.10302985 -0.37408215 0.42748857 0.1938675
0.25753474 0.08081007 0.47319853 -0.14967686 -0.16120231 -0.02890116 -0.3298558 -0.28757632
0.34680843 0.36599964 0.4210313 0.22556722 -0.4246034 0.45884436 -0.09724581 0.033370554

fc1.bias f4 [8]
00000000: 4047 4a3c b072 173d ac24 473e a835 9d3e
00000010: bc17 c1be d621 b93e 9a77 f93e b085 f5be
0.012346089 0.03697461 0.19447583 0.30705 -0.3771342 0.36158627 0.4872406 -0.47953558

fc2.weight f4 [4, 8]
00000000: eaaa 23be e656 753e 47f0 993e 22e3 263e
00000010: d724 a93e cc21 05be 918e 9a3e 1518 b43e
00000020: b744 84be 583e 273d 566b 3c3e 46c7 69be
00000030: 8002 29bb 2b8f 93be e729 993e 41b3 8b3e
00000040: 2e68 283e b56f 833e 0004 d43c 8bad 04be
00000050: 1084 e9bd 0018 67be f649 623e acb5 ccbd
00000060: f0a0 e4bc 2fc0 ab3e ce09 d8bd aaab 573e
00000070: 045b aabe 7438 3cbe 2a38 1c3e b969 963e
-0.15983167 0.2395893 0.3006613 0.16297582 0.3303592 -0.13001174 0.30186895 0.35174623
-0.25833675 0.04083094 0.1840032 -0.22829923 -0.0025788844 -0.28820166 0.2991478 0.27285197
0.16445991 0.25671163 0.025880814 -0.12956826 -0.11402142 -0.22567749 0.22098526 -0.09995589
-0.027908772 0.33545062 -0.10548745 0.21061578 -0.33272564 -0.1838091 0.152558 0.29377535

fc2.bias f4 [4]
00000000: ccb2 a3be fecd 7f3e 8ee2 033e 42c5 503e
-0.3197235 0.24980924 0.12879393 0.20387748

output.weight f4 [1, 4]
00000000: 2078 cabd e2ef c7be 4876 f5bd 2483 ff3e
-0.09886193 -0.39050204 -0.11985451 0.4990474
