smash-bot/saved-models/2024-07-18-00-57-01/2.pth (torch, 2508 bytes, 5 tensors)

fc1.weight f4 [8, 4]
000000 d8 c9 64 3e d4 4d 45 be 8a 3d be 3e 9c 0e b8 3e
       0.22342622 -0.1926797 0.37156326 0.35948646
000010 6a f0 b6 be de 0b 85 3e 40 ce 72 3e 2a ca 93 3e
       -0.35730296 0.25985616 0.2371149 0.28865176
000020 48 bf 52 be d2 48 ad be c2 43 c4 3e 60 86 d3 bd
       -0.2058078 -0.3384462 0.38332945 -0.10328364
000030 b8 ff a2 bd d0 c4 fd bd 94 6e fb 3e 02 d5 fc 3e
       -0.07958931 -0.12391055 0.49107802 0.49381262
000040 e0 d2 92 be de 8c cb 3e 6e f9 df be 2c 1c 23 be
       -0.2867651 0.3975591 -0.43744987 -0.15928715
000050 70 6a 41 bd 78 d7 d0 bd a0 ad 90 3d 52 fb df 3e
       -0.047220647 -0.101973474 0.07064366 0.4374643
000060 b0 00 69 be 08 bb cf be 6c ce 8e be 36 c7 cd be
       -0.22754169 -0.4057238 -0.27891862 -0.40191048
000070 c4 73 f5 be d2 dd ff 3e f0 fa a3 bd 80 db 75 3e
       -0.47939885 0.49973923 -0.08006847 0.24009514

fc1.bias f4 [8]
000000 b8 c4 fb 3e 70 e2 c5 bd 30 ab 93 bd b4 61 cb 3e
       0.49173522 -0.0966233 -0.07210386 0.3972298
000010 50 ee 7a 3d f2 c4 ca 3e a0 d9 d7 3c a8 4e 35 3e
       0.06126243 0.39603382 0.026348889 0.17705786

fc2.weight f4 [4, 8]
000000 f3 aa 14 be 91 5f a5 3e 40 80 57 3d e6 f9 47 3e
       -0.14518337 0.32299474 0.052612543 0.19528922
000010 a4 63 8f 3d 03 16 93 3e f8 36 0a 3e 80 fb 8e be
       0.07001427 0.2872773 0.13497531 -0.27926254
000020 c6 3f 38 3e bd 8d 8c 3e 70 31 6e bd 7c c7 9c bd
       0.17993078 0.27451888 -0.058152616 -0.07655236
000030 2b 8a 23 be f8 17 e5 3d 42 e9 39 be fb 72 a1 3e
       -0.15970676 0.11186212 -0.18155387 0.31533036
000040 4c 5a c8 3d 9e d5 7b be 92 92 ec bd f0 c7 65 be
       0.09782848 -0.24593207 -0.115513936 -0.22439551
000050 b0 5d 82 be 20 73 db 3c 8c 25 8d be d7 5c 11 be
       -0.25462103 0.026788294 -0.27567708 -0.14195572
000060 fe 64 42 be 1a 18 5c 3e b8 b0 b8 bd aa a5 7c 3e
       -0.18983838 0.21493569 -0.090180814 0.24672571
000070 ad f6 91 be 55 93 8b 3e 40 b7 b0 bd f4 69 99 3d
       -0.2850851 0.27260843 -0.08628702 0.07490912

fc2.bias f4 [4]
000000 57 b6 b2 3e 8a 3b e2 bd c8 24 b2 3d ca 5d 74 3e
       0.3490474 -0.110465124 0.08698422 0.23863903

output.weight f4 [1, 4]
000000 60 8c fc be 00 53 65 3d d0 71 3e 3e 1c a2 cf 3e
       -0.49325848 0.055987358 0.18598104 0.40553367
