smash-bot/saved-models/2024-07-18-00-57-01/20.pth (torch, 2582 bytes, 5 tensors)

fc1.weight f4 [8, 4]
0.45513862 0.32689583 0.14820802 0.20227736 0.26349914 0.26924795 -0.272084 0.41006202
0.24619645 0.04518777 0.41706818 -0.36895567 0.32424104 0.4438364 -0.33176565 -0.20939809
0.07623428 0.32064193 -0.48307407 -0.4982198 0.032554746 0.24997962 0.18360972 0.48338467
-0.0961315 0.13357705 -0.48125333 -0.41815656 -0.080106616 0.2915123 0.48352802 0.002597332
00000000: ee07 e93e e45e a73e d8c3 173e cc21 4f3e
00000010: 5ce9 863e deda 893e 984e 8bbe a6f3 d13e
00000020: ec1a 7c3e d016 393d f689 d53e c2e7 bcbe
00000030: ec02 a63e 863e e33e 30dd a9be 746c 56be
00000040: b820 9c3d 2e2b a43e 7c55 f7be aa16 ffbe
00000050: 2058 053d a8fa 7f3e 3004 3c3e 327e f73e
00000060: 98e0 c4bd 6cc8 083e d666 f6be 9e18 d6be
00000070: f00e a4bd 1a41 953e fc90 f73e 0038 2a3b

fc1.bias f4 [8]
-0.48847538 -0.17539293 0.18571669 0.40800297 0.38671857 0.21790922 0.34498423 0.2812301
00000000: 7219 fabe 349a 33be 842c 3e3e c4e5 d03e
00000010: faff c53e 9823 5f3e c6a1 b03e 64fd 8f3e

fc2.weight f4 [4, 8]
0.2514864 0.14176589 0.23576191 0.118175805 -0.21629602 -0.28566316 -0.003376186 0.19148424
-0.31818575 0.07714558 0.13438678 -0.08023164 0.24084815 0.21328226 0.32391402 -0.23369576
0.1968359 0.1483269 0.32716885 -0.26280376 0.28549197 -0.18470755 -0.17072874 0.11599967
-0.33419424 0.19637874 -0.040259928 0.29185668 -0.15621738 0.06367931 0.04625234 0.002442062
00000000: d3c2 803e 142b 113e 926b 713e 2806 f23d
00000010: b47c 5dbe 7142 92be 0043 5dbb 7214 443e
00000020: 3ee9 a2be 80fe 9d3d b09c 093e 7c50 a4bd
00000030: e6a0 763e aa66 5a3e 0fd8 a53e f14d 6fbe
00000040: 5a8f 493e 02e3 173e ad82 a73e 378e 86be
00000050: 012c 923e fa23 3dbe 84d3 2ebe 3c91 ed3d
00000060: 821b abbe 8217 493e 98e7 24bd 3d6e 953e
00000070: 73f7 1fbe 4c6a 823d 1873 3d3d 000b 203b

fc2.bias f4 [4]
-0.1684371 0.09896177 0.16537055 -0.03805363
00000000: c67a 2cbe 78ac ca3d e656 293e 20de 1bbd

output.weight f4 [1, 4]
-0.19629288 0.17429906 0.3157801 0.0035745502
00000000: 0001 49be 747b 323e eead a13e 0043 6a3b
