smash-bot/saved-models/2024-07-18-00-57-01/3.pth (torch, 2508 bytes, 5 tensors)

fc1.weight f4 [8, 4]
0	0xbe9ded10	-0.30844927
1	0x3e29d1e0	0.16583967
2	0x3ddb5910	0.10710347
3	0xbef2050a	-0.4726947
4	0xbedb1250	-0.4278741
5	0xbe9e69d8	-0.30940127
6	0x3ebb4dde	0.36582845
7	0xbe80dcb0	-0.2516837
8	0xbd938c68	-0.07204515
9	0x3dd08018	0.10180682
10	0xbe779ed8	-0.24181688
11	0x3c344140	0.011001885
12	0xbe9abb98	-0.30221248
13	0xbe45b674	-0.19307882
14	0x3e3714ac	0.1787898
15	0x3e5c9524	0.21541268
16	0x3dfa7268	0.122288525
17	0x3e5db274	0.21650106
18	0x3ecdc6b4	0.4019066
19	0x3e83e594	0.25761092
20	0xbed7dbc6	-0.4215986
21	0xbe13b618	-0.14424932
22	0xbeba0022	-0.36328226
23	0xbe0a29d8	-0.13492525
24	0x3e4eec04	0.2020722
25	0x3e8a4f80	0.2701378
26	0x3e390884	0.18069655
27	0xbe28d748	-0.16488373
28	0x3ed94352	0.42434174
29	0xbc9bd340	-0.01902163
30	0xbe7bf8f0	-0.24606681
31	0xbdfb1648	-0.12260109

fc1.bias f4 [8]
0	0x3d8b2500	0.067941666
1	0x3edf5afe	0.4362411
2	0xbeb65452	-0.35611206
3	0x3e468d84	0.19389921
4	0x3efd291a	0.4944542
5	0xbe89c75a	-0.26909906
6	0xbef27d86	-0.47361392
7	0x3e126de8	0.14299738

fc2.weight f4 [4, 8]
0	0x3d8ed484	0.06974128
1	0xbe2745ef	-0.16335271
2	0xbde3755c	-0.11106369
3	0xbd4522f8	-0.048129052
4	0xbea61a74	-0.32442057
5	0xbea573ec	-0.32315004
6	0x3e91bae3	0.28462896
7	0xbc5aa200	-0.013344288
8	0xbe6f1fb1	-0.23351933
9	0xbe570dff	-0.21001433
10	0xbe2f3dce	-0.1711342
11	0x3cfe9da0	0.03108102
12	0x3e644512	0.22291973
13	0xbe0a6571	-0.1351526
14	0xbe8a1b02	-0.2697373
15	0xbd7a75d8	-0.06114754
16	0xbe1c9620	-0.15291643
17	0x3e43c5c6	0.19118413
18	0x3eb22613	0.34794673
19	0xbe319d30	-0.17345119
20	0xbe6651ca	-0.22492138
21	0xbea57dd2	-0.32322556
22	0x3e0e5574	0.13899785
23	0x3ea5a561	0.32352737
24	0xbe3d4692	-0.18483952
25	0x3d629730	0.055319965
26	0x3c5e7200	0.013576984
27	0x3d850c80	0.06496525
28	0x3d3a3ca0	0.045467973
29	0x3dad1c8c	0.084527105
30	0x3de86a34	0.11348382
31	0xbb3dd480	-0.0028965771

fc2.bias f4 [4]
0	0xbe8f5cf6	-0.2800061
1	0x3e5d96de	0.21639583
2	0x3d2e2b40	0.042521715
3	0x3e7d8b72	0.24760225

output.weight f4 [1, 4]
0	0xbe5293e8	-0.20564234
1	0x3c032240	0.008003771
2	0x3ed4827c	0.41505802
3	0x3cccff60	0.025024116
