smash-bot/saved-models/2024-07-18-00-57-01/4.pth (torch, 2508 bytes, 5 tensors)

fc1.weight f4 [8, 4]
-0.33001137 0.1883133 -0.33510476 0.10746789 0.425196 0.029491127 0.48122984 0.007206857
0.39761442 -0.17424887 -0.27567065 0.26952988 0.3081383 0.3026355 0.3319211 0.396033
0.26902747 -0.03532964 0.023529947 0.43140453 -0.013309002 -0.2868439 0.35416615 -0.49193686
-0.3182178 0.27873594 0.14156306 0.3817709 0.09028691 -0.19583112 0.0046916604 -0.1779949
00000000: 40f7 a8be 34d5 403e da92 abbe 2018 dc3d
00000010: 4ab3 d93e 6097 f13c c263 f63e 8027 ec3b
00000020: 1e94 cb3e 4c6e 32be b424 8dbe d2ff 893e
00000030: 4ec4 9d3e 0af3 9a3e 90f1 a93e d6c4 ca3e
00000040: f8bd 893e d0b5 10bd e0c1 c03c 0ee1 dc3e
00000050: 000e 5abc 34dd 92be 4455 b53e 26df fbbe
00000060: 72ed a2be 7ab6 8e3e e8f5 103e 7a77 c33e
00000070: 58e8 b83d f487 48be 80bc 993b 4c44 36be

fc1.bias f4 [8]
-0.3915854 -0.3647617 -0.47739464 -0.30756444 0.3658797 -0.40936112 0.116050124 0.49060452
00000000: e27d c8be 0cc2 babe 126d f4be 1679 9dbe
00000010: 9654 bb3e c897 d1be b0ab ed3d 8430 fb3e

fc2.weight f4 [4, 8]
0.34531942 0.1442487 -0.31921324 -0.10709417 -0.14395833 0.23591122 -0.20882794 0.028175265
-0.22962573 0.26135936 0.1347068 0.019921184 0.23248187 0.2907807 0.008221805 -0.1971627
0.08280131 -0.18438782 -0.040771306 -0.14476553 -0.1859822 -0.17180847 0.089724034 0.2952468
0.29072645 0.22076419 -0.030627578 -0.06503466 0.13917735 -0.103691444 -0.27727872 0.25580087
00000000: b5cd b03e eeb5 133e eb6f a3be 3054 dbbd
00000010: d069 13be b692 713e fed6 55be d0cf e63c
00000020: 0223 6bbe e5d0 853e 94f0 093e c031 a33c
00000030: ba0f 6e3e 35e1 943e c0b4 063c 05e5 49be
00000040: bc93 a93d 29d0 3cbe d0ff 26bd 6a3d 14be
00000050: 1e72 3ebe 8fee 2fbe 3cc1 b73d 972a 973e
00000060: 19da 943e 0210 623e b0e6 fabc e430 85bd
00000070: 8284 0e3e 2e5c d4bd 7af7 8dbe 55f8 823e

fc2.bias f4 [4]
-0.06222552 -0.15137269 0.10308251 -0.19503108
00000000: 30e0 7ebd 7101 1bbe ec1c d33d 3ab6 47be

output.weight f4 [1, 4]
-0.4439093 0.23200428 -0.49909532 -0.020254433
00000000: 1448 e3be 8892 6d3e 6c89 ffbe a0ec a5bc
