smash-bot/saved-models/2024-07-18-00-57-01/6.pth (torch, 2508 bytes, 5 tensors)

fc1.weight f4 [8, 4]
-0.017530203 0.4836685 -0.46551633 -0.34673512 -0.14916384 -0.08386731 0.4382376 -0.24099976
-0.38848156 0.2784044 0.4364273 0.18406379 0.43617928 -0.2777056 0.19901198 0.08830935
-0.17490828 -0.44163537 0.24447888 -0.20673376 -0.18088245 0.23172241 -0.055484295 0.079600215
-0.001250565 0.10505009 0.15416789 0.26655602 -0.25809354 -0.03227991 0.025577366 0.181148
00000000: 809b 8fbc 66a3 f73e 2858 eebe 4487 b1be
00000010: 68be 18be a0c2 abbd ae60 e03e a4c8 76be
00000020: 0ee7 c6be 068b 8e3e 6673 df3e 387b 3c3e
00000030: e452 df3e 6e2f 8ebe ccc9 4b3e 88db b43d
00000040: 281b 33be 081e e2be ac58 7a3e 04b2 53be
00000050: 4039 39be a448 6d3e 8043 63bd 7005 a33d
00000060: 00ea a3ba 8024 d73d 30de 1d3e 087a 883e
00000070: d624 84be f037 04bd a087 d13c dc7e 393e

fc1.bias f4 [8]
-0.4028126 -0.3374594 -0.24555689 0.12263304 -0.48331487 0.4096822 0.25846612 0.38121128
00000000: 743d cebe 7ac7 acbe 4473 7bbe 0827 fb3d
00000010: 0c75 f7be dec1 d13e ac55 843e 202e c33e

fc2.weight f4 [4, 8]
0.12456089 0.07843596 0.161665 -0.2874147 0.20338348 0.26183483 -0.10871045 -0.008422673
0.23885468 -0.03164026 0.24695721 -0.02184856 0.28398195 0.2378175 0.11440712 0.18981174
-0.028343081 0.18583205 0.0987438 -0.047763377 0.18305513 0.16062072 -0.08825731 -0.09644365
-0.13538128 -0.28622207 0.015000701 -0.10454467 0.025247902 0.072851 0.19205925 0.06333083
00000000: c819 ff3d 08a3 a03d 828b 253e 0528 93be
00000010: c243 503e 370f 863e 96a3 debd 40ff 09bc
00000020: 5296 743e 3899 01bd 5ae2 7c3e c0fb b2bc
00000030: 1566 913e 6e86 733e 484e ea3d 025e 423e
00000040: c02f e8bc c24a 3e3e 303a ca3d 88a3 43bd
00000050: ce72 3b3e c279 243e 40c0 b4bd 4084 c5bd
00000060: 64a1 0abe b38b 92be 80c5 753c 841b d6bd
00000070: b0d4 ce3c e832 953d 2eab 443e 98b3 813d

fc2.bias f4 [4]
-0.3219336 0.26678374 0.24246731 0.085903674
00000000: 7bd4 a4be e197 883e 5a49 783e 44ee af3d

output.weight f4 [1, 4]
-0.2546522 -0.3420056 0.31091124 -0.13956857
00000000: c661 82be 5c1b afbe c22f 9f3e 10eb 0ebe
