smash-bot/saved-models/2024-07-18-00-57-01/8.pth (torch, 2508 bytes, 5 tensors)

fc1.weight f4 [8, 4]
-0.07544726 -0.37850976 0.32410568 -0.11805588 -0.13735491 -0.121827364 -0.3360446 0.019332886
0.11467737 -0.22214466 0.2848767 -0.01848507 0.29863006 0.39019817 -0.27958786 0.20994675
-0.020197928 -0.07665539 0.030017793 0.019918084 0.029393256 0.09232986 0.14866668 0.36857575
0.06782961 -0.24584472 0.12675887 -0.18515146 0.34354347 0.37299693 -0.067221165 0.4238971
00000000: 1884 9abd 08cc c1be 2ef1 a53e 48c7 f1bd
00000010: c4a6 0cbe a080 f9bd 0a0e acbe 0060 9e3c
00000020: f8db ea3d e479 63be 5cdb 913e 006e 97bc
00000030: 0ae6 983e 0ec8 c73e 2426 8fbe 48fc 563e
00000040: 2076 a5bc 80fd 9cbd e0e7 f53c 402b a33c
00000050: 20ca f03c 7017 bd3d 143c 183e f6b5 bc3e
00000060: 40ea 8a3d b8be 7bbe 14cd 013e 5898 3dbe
00000070: eee4 af3e 74f9 be3e 40ab 89bd 0a09 d93e

fc1.bias f4 [8]
-0.24343413 -0.022287667 -0.19053775 0.47741133 0.07327199 -0.35927075 0.28008747 0.14155114
00000000: cc46 79be a094 b6bc 541c 43be 426f f43e
00000010: a00f 963d 56f2 b7be a067 8f3e c8f2 103e

fc2.weight f4 [4, 8]
-0.3344757 -0.2063867 0.04206723 0.13655853 0.23266175 0.30926964 0.015447319 -0.3471128
-0.14329085 0.20212135 0.16138795 -0.11593872 0.1017288 -0.0805254 0.08981398 0.19746134
-0.15631798 0.008675754 -0.30179226 0.0534392 -0.25814775 -0.0066223145 0.09521833 -0.2506802
0.33628818 -0.31987137 -0.25786212 0.29620776 0.26414552 0.34828934 -0.19910416 0.26761356
00000000: 6640 abbe 0957 53be b04e 2c3d 00d6 0b3e
00000010: e23e 6e3e 9758 9e3e c016 7d3c c5b8 b1be
00000020: d6ba 12be e6f8 4e3e e242 253e 4871 edbd
00000030: 3057 d03d 80ea a4bd 64f0 b73d 4e33 4a3e
00000040: d211 20be c024 0e3c 8484 9abe 10e3 5a3d
00000050: f12b 84be 0000 d9bb d401 c33d 2859 80be
00000060: f72d ac3e 2ec6 a3be 8106 84be 8ba8 973e
00000070: 153e 873e fb52 b23e f6e1 4bbe a504 893e

fc2.bias f4 [4]
-0.021925837 0.3063158 -0.10655828 0.2568774
00000000: d09d b3bc 6dd5 9c3e 3a3b dabd 6f85 833e

output.weight f4 [1, 4]
-0.49398023 0.22883469 -0.35402876 0.32402247
00000000: faea fcbe a453 6a3e 4243 b5be 46e6 a53e
